…
|    0   N/A  N/A     10414      C   ...8.3/envs/vissl/bin/python     1897MiB |
|    1   N/A  N/A     10416      C   ...8.3/envs/vissl/bin/python     1897MiB |
+-----------------------------------------------------------------------------+

INFO 2021-11-09 00:53:30,908 trainer_main.py: 172: Model is:
 DistributedDataParallel(
  (module): Classy <class 'vissl.models.base_ssl_model.BaseSSLMultiInputOutputModel'>:
  BaseSSLMultiInputOutputModel(
    (_heads): ModuleDict()
    (trunk): DeepLabV3PlusTrunk(
      (_feature_blocks): ModuleDict(
        (model): DeepLabV3Plus(
          (backbone): ResNet(
            (layer0): Sequential(
              (0): Conv2d(3, 64, kernel_size=(7, 7), stride=(2, 2), padding=(3, 3), bias=False)
              (1): SyncBatchNorm(64, eps=1e-05, momentum=0.1, affine=True, track_running_stats=True)
              (2): ReLU(inplace=True)
              (3): MaxPool2d(kernel_size=3, stride=2, padding=1, dilation=1, ceil_mode=False)
            )
            (layer1): Sequential(
              (0): Bottleneck(
                (conv1): Conv2d(64, 64, kernel_size=(1, 1), stride=(1, 1), bias=False)
                (bn1): SyncBatchNorm(64, eps=1e-05, momentum=0.1, affine=True, track_running_stats=True)
                (conv2): Conv2d(64, 64, kernel_size=(3, 3), stride=(1, 1), padding=(1, 1), bias=False)
                (bn2): SyncBatchNorm(64, eps=1e-05, momentum=0.1, affine=True, track_running_stats=True)
                (conv3): Conv2d(64, 256, kernel_size=(1, 1), stride=(1, 1), bias=False)
                (bn3): SyncBatchNorm(256, eps=1e-05, momentum=0.1, affine=True, track_running_stats=True)
                (relu): ReLU(inplace=True)
                (downsample): Sequential(
                  (0): Conv2d(64, 256, kernel_size=(1, 1), stride=(1, 1), bias=False)
                  (1): SyncBatchNorm(256, eps=1e-05, momentum=0.1, affine=True, track_running_stats=True)
                )
              )
              (1): Bottleneck(
                (conv1): Conv2d(256, 64, kernel_size=(1, 1), stride=(1, 1), bias=False)
                (bn1): SyncBatchNorm(64, eps=1e-05, momentum=0.1, affine=True, track_running_stats=True)
                (conv2): Conv2d(64, 64, kernel_size=(3, 3), stride=(1, 1), padding=(1, 1), bias=False)
                (bn2): SyncBatchNorm(64, eps=1e-05, momentum=0.1, affine=True, track_running_stats=True)
                (conv3): Conv2d(64, 256, kernel_size=(1, 1), stride=(1, 1), bias=False)
                (bn3): SyncBatchNorm(256, eps=1e-05, momentum=0.1, affine=True, track_running_stats=True)
                (relu): ReLU(inplace=True)
              )
              (2): Bottleneck(
                (conv1): Conv2d(256, 64, kernel_size=(1, 1), stride=(1, 1), bias=False)
                (bn1): SyncBatchNorm(64, eps=1e-05, momentum=0.1, affine=True, track_running_stats=True)
                (conv2): Conv2d(64, 64, kernel_size=(3, 3), stride=(1, 1), padding=(1, 1), bias=False)
                (bn2): SyncBatchNorm(64, eps=1e-05, momentum=0.1, affine=True, track_running_stats=True)
                (conv3): Conv2d(64, 256, kernel_size=(1, 1), stride=(1, 1), bias=False)
                (bn3): SyncBatchNorm(256, eps=1e-05, momentum=0.1, affine=True, track_running_stats=True)
                (relu): ReLU(inplace=True)
              )
            )
            (layer2): Sequential(
              (0): Bottleneck(
                (conv1): Conv2d(256, 128, kernel_size=(1, 1), stride=(1, 1), bias=False)
                (bn1): SyncBatchNorm(128, eps=1e-05, momentum=0.1, affine=True, track_running_stats=True)
                (conv2): Conv2d(128, 128, kernel_size=(3, 3), stride=(2, 2), padding=(1, 1), bias=False)
                (bn2): SyncBatchNorm(128, eps=1e-05, momentum=0.1, affine=True, track_running_stats=True)
                (conv3): Conv2d(128, 512, kernel_size=(1, 1), stride=(1, 1), bias=False)
                (bn3): SyncBatchNorm(512, eps=1e-05, momentum=0.1, affine=True, track_running_stats=True)
                (relu): ReLU(inplace=True)
                (downsample): Sequential(
                  (0): Conv2d(256, 512, kernel_size=(1, 1), stride=(2, 2), bias=False)
                  (1): SyncBatchNorm(512, eps=1e-05, momentum=0.1, affine=True, track_running_stats=True)
                )
              )
              (1): Bottleneck(
                (conv1): Conv2d(512, 128, kernel_size=(1, 1), stride=(1, 1), bias=False)
                (bn1): SyncBatchNorm(128, eps=1e-05, momentum=0.1, affine=True, track_running_stats=True)
                (conv2): Conv2d(128, 128, kernel_size=(3, 3), stride=(1, 1), padding=(1, 1), bias=False)
                (bn2): SyncBatchNorm(128, eps=1e-05, momentum=0.1, affine=True, track_running_stats=True)
                (conv3): Conv2d(128, 512, kernel_size=(1, 1), stride=(1, 1), bias=False)
                (bn3): SyncBatchNorm(512, eps=1e-05, momentum=0.1, affine=True, track_running_stats=True)
                (relu): ReLU(inplace=True)
              )
              (2): Bottleneck(
                (conv1): Conv2d(512, 128, kernel_size=(1, 1), stride=(1, 1), bias=False)
                (bn1): SyncBatchNorm(128, eps=1e-05, momentum=0.1, affine=True, track_running_stats=True)
                (conv2): Conv2d(128, 128, kernel_size=(3, 3), stride=(1, 1), padding=(1, 1), bias=False)
                (bn2): SyncBatchNorm(128, eps=1e-05, momentum=0.1, affine=True, track_running_stats=True)
                (conv3): Conv2d(128, 512, kernel_size=(1, 1), stride=(1, 1), bias=False)
                (bn3): SyncBatchNorm(512, eps=1e-05, momentum=0.1, affine=True, track_running_stats=True)
                (relu): ReLU(inplace=True)
              )
              (3): Bottleneck(
                (conv1): Conv2d(512, 128, kernel_size=(1, 1), stride=(1, 1), bias=False)
                (bn1): SyncBatchNorm(128, eps=1e-05, momentum=0.1, affine=True, track_running_stats=True)
                (conv2): Conv2d(128, 128, kernel_size=(3, 3), stride=(1, 1), padding=(1, 1), bias=False)
                (bn2): SyncBatchNorm(128, eps=1e-05, momentum=0.1, affine=True, track_running_stats=True)
                (conv3): Conv2d(128, 512, kernel_size=(1, 1), stride=(1, 1), bias=False)
                (bn3): SyncBatchNorm(512, eps=1e-05, momentum=0.1, affine=True, track_running_stats=True)
                (relu): ReLU(inplace=True)
              )
            )
            (layer3): Sequential(
              (0): Bottleneck(
                (conv1): Conv2d(512, 256, kernel_size=(1, 1), stride=(1, 1), bias=False)
                (bn1): SyncBatchNorm(256, eps=1e-05, momentum=0.1, affine=True, track_running_stats=True)
                (conv2): Conv2d(256, 256, kernel_size=(3, 3), stride=(1, 1), padding=(2, 2), dilation=(2, 2), bias=False)
                (bn2): SyncBatchNorm(256, eps=1e-05, momentum=0.1, affine=True, track_running_stats=True)
                (conv3): Conv2d(256, 1024, kernel_size=(1, 1), stride=(1, 1), bias=False)
                (bn3): SyncBatchNorm(1024, eps=1e-05, momentum=0.1, affine=True, track_running_stats=True)
                (relu): ReLU(inplace=True)
                (downsample): Sequential(
                  (0): Conv2d(512, 1024, kernel_size=(1, 1), stride=(1, 1), bias=False)
                  (1): SyncBatchNorm(1024, eps=1e-05, momentum=0.1, affine=True, track_running_stats=True)
                )
              )
              (1): Bottleneck(
                (conv1): Conv2d(1024, 256, kernel_size=(1, 1), stride=(1, 1), bias=False)
                (bn1): SyncBatchNorm(256, eps=1e-05, momentum=0.1, affine=True, track_running_stats=True)
                (conv2): Conv2d(256, 256, kernel_size=(3, 3), stride=(1, 1), padding=(2, 2), dilation=(2, 2), bias=False)
                (bn2): SyncBatchNorm(256, eps=1e-05, momentum=0.1, affine=True, track_running_stats=True)
                (conv3): Conv2d(256, 1024, kernel_size=(1, 1), stride=(1, 1), bias=False)
                (bn3): SyncBatchNorm(1024, eps=1e-05, momentum=0.1, affine=True, track_running_stats=True)
                (relu): ReLU(inplace=True)
              )
              (2): Bottleneck(
                (conv1): Conv2d(1024, 256, kernel_size=(1, 1), stride=(1, 1), bias=False)
                (bn1): SyncBatchNorm(256, eps=1e-05, momentum=0.1, affine=True, track_running_stats=True)
                (conv2): Conv2d(256, 256, kernel_size=(3, 3), stride=(1, 1), padding=(2, 2), dilation=(2, 2), bias=False)
                (bn2): SyncBatchNorm(256, eps=1e-05, momentum=0.1, affine=True, track_running_stats=True)
                (conv3): Conv2d(256, 1024, kernel_size=(1, 1), stride=(1, 1), bias=False)
                (bn3): SyncBatchNorm(1024, eps=1e-05, momentum=0.1, affine=True, track_running_stats=True)
                (relu): ReLU(inplace=True)
              )
              (3): Bottleneck(
                (conv1): Conv2d(1024, 256, kernel_size=(1, 1), stride=(1, 1), bias=False)
                (bn1): SyncBatchNorm(256, eps=1e-05, momentum=0.1, affine=True, track_running_stats=True)
                (conv2): Conv2d(256, 256, kernel_size=(3, 3), stride=(1, 1), padding=(2, 2), dilation=(2, 2), bias=False)
                (bn2): SyncBatchNorm(256, eps=1e-05, momentum=0.1, affine=True, track_running_stats=True)
                (conv3): Conv2d(256, 1024, kernel_size=(1, 1), stride=(1, 1), bias=False)
                (bn3): SyncBatchNorm(1024, eps=1e-05, momentum=0.1, affine=True, track_running_stats=True)
                (relu): ReLU(inplace=True)
              )
              (4): Bottleneck(
                (conv1): Conv2d(1024, 256, kernel_size=(1, 1), stride=(1, 1), bias=False)
                (bn1): SyncBatchNorm(256, eps=1e-05, momentum=0.1, affine=True, track_running_stats=True)
                (conv2): Conv2d(256, 256, kernel_size=(3, 3), stride=(1, 1), padding=(2, 2), dilation=(2, 2), bias=False)
                (bn2): SyncBatchNorm(256, eps=1e-05, momentum=0.1, affine=True, track_running_stats=True)
                (conv3): Conv2d(256, 1024, kernel_size=(1, 1), stride=(1, 1), bias=False)
                (bn3): SyncBatchNorm(1024, eps=1e-05, momentum=0.1, affine=True, track_running_stats=True)
                (relu): ReLU(inplace=True)
              )
              (5): Bottleneck(
                (conv1): Conv2d(1024, 256, kernel_size=(1, 1), stride=(1, 1), bias=False)
                (bn1): SyncBatchNorm(256, eps=1e-05, momentum=0.1, affine=True, track_running_stats=True)
                (conv2): Conv2d(256, 256, kernel_size=(3, 3), stride=(1, 1), padding=(2, 2), dilation=(2, 2), bias=False)
                (bn2): SyncBatchNorm(256, eps=1e-05, momentum=0.1, affine=True, track_running_stats=True)
                (conv3): Conv2d(256, 1024, kernel_size=(1, 1), stride=(1, 1), bias=False)
                (bn3): SyncBatchNorm(1024, eps=1e-05, momentum=0.1, affine=True, track_running_stats=True)
                (relu): ReLU(inplace=True)
              )
            )
            (layer4): Sequential(
              (0): Bottleneck(
                (conv1): Conv2d(1024, 512, kernel_size=(1, 1), stride=(1, 1), bias=False)
                (bn1): SyncBatchNorm(512, eps=1e-05, momentum=0.1, affine=True, track_running_stats=True)
                (conv2): Conv2d(512, 512, kernel_size=(3, 3), stride=(1, 1), padding=(4, 4), dilation=(4, 4), bias=False)
                (bn2): SyncBatchNorm(512, eps=1e-05, momentum=0.1, affine=True, track_running_stats=True)
                (conv3): Conv2d(512, 2048, kernel_size=(1, 1), stride=(1, 1), bias=False)
                (bn3): SyncBatchNorm(2048, eps=1e-05, momentum=0.1, affine=True, track_running_stats=True)
                (relu): ReLU(inplace=True)
                (downsample): Sequential(
                  (0): Conv2d(1024, 2048, kernel_size=(1, 1), stride=(1, 1), bias=False)
                  (1): SyncBatchNorm(2048, eps=1e-05, momentum=0.1, affine=True, track_running_stats=True)
                )
              )
              (1): Bottleneck(
                (conv1): Conv2d(2048, 512, kernel_size=(1, 1), stride=(1, 1), bias=False)
                (bn1): SyncBatchNorm(512, eps=1e-05, momentum=0.1, affine=True, track_running_stats=True)
                (conv2): Conv2d(512, 512, kernel_size=(3, 3), stride=(1, 1), padding=(4, 4), dilation=(4, 4), bias=False)
                (bn2): SyncBatchNorm(512, eps=1e-05, momentum=0.1, affine=True, track_running_stats=True)
                (conv3): Conv2d(512, 2048, kernel_size=(1, 1), stride=(1, 1), bias=False)
                (bn3): SyncBatchNorm(2048, eps=1e-05, momentum=0.1, affine=True, track_running_stats=True)
                (relu): ReLU(inplace=True)
              )
              (2): Bottleneck(
                (conv1): Conv2d(2048, 512, kernel_size=(1, 1), stride=(1, 1), bias=False)
                (bn1): SyncBatchNorm(512, eps=1e-05, momentum=0.1, affine=True, track_running_stats=True)
                (conv2): Conv2d(512, 512, kernel_size=(3, 3), stride=(1, 1), padding=(4, 4), dilation=(4, 4), bias=False)
                (bn2): SyncBatchNorm(512, eps=1e-05, momentum=0.1, affine=True, track_running_stats=True)
                (conv3): Conv2d(512, 2048, kernel_size=(1, 1), stride=(1, 1), bias=False)
                (bn3): SyncBatchNorm(2048, eps=1e-05, momentum=0.1, affine=True, track_running_stats=True)
                (relu): ReLU(inplace=True)
              )
            )
          )
          (ASSP): ASSP(
            (aspp1): Sequential(
              (0): Conv2d(2048, 256, kernel_size=(1, 1), stride=(1, 1), bias=False)
              (1): SyncBatchNorm(256, eps=1e-05, momentum=0.1, affine=True, track_running_stats=True)
              (2): ReLU(inplace=True)
            )
            (aspp2): DepthwiseSeparableConv(
              (depthwise_conv): Conv2d(2048, 2048, kernel_size=(3, 3), stride=(1, 1), padding=(12, 12), dilation=(12, 12), groups=2048, bias=False)
              (depthwise_bn): SyncBatchNorm(2048, eps=1e-05, momentum=0.1, affine=True, track_running_stats=True)
              (pointwise_conv): Conv2d(2048, 256, kernel_size=(1, 1), stride=(1, 1), bias=False)
              (pointwise_bn): SyncBatchNorm(256, eps=1e-05, momentum=0.1, affine=True, track_running_stats=True)
              (relu): ReLU()
            )
            (aspp3): DepthwiseSeparableConv(
              (depthwise_conv): Conv2d(2048, 2048, kernel_size=(3, 3), stride=(1, 1), padding=(24, 24), dilation=(24, 24), groups=2048, bias=False)
              (depthwise_bn): SyncBatchNorm(2048, eps=1e-05, momentum=0.1, affine=True, track_running_stats=True)
              (pointwise_conv): Conv2d(2048, 256, kernel_size=(1, 1), stride=(1, 1), bias=False)
              (pointwise_bn): SyncBatchNorm(256, eps=1e-05, momentum=0.1, affine=True, track_running_stats=True)
              (relu): ReLU()
            )
            (aspp4): DepthwiseSeparableConv(
              (depthwise_conv): Conv2d(2048, 2048, kernel_size=(3, 3), stride=(1, 1), padding=(36, 36), dilation=(36, 36), groups=2048, bias=False)
              (depthwise_bn): SyncBatchNorm(2048, eps=1e-05, momentum=0.1, affine=True, track_running_stats=True)
              (pointwise_conv): Conv2d(2048, 256, kernel_size=(1, 1), stride=(1, 1), bias=False)
              (pointwise_bn): SyncBatchNorm(256, eps=1e-05, momentum=0.1, affine=True, track_running_stats=True)
              (relu): ReLU()
            )
            (avg_pool): Sequential(
              (0): AdaptiveAvgPool2d(output_size=(1, 1))
              (1): Conv2d(2048, 256, kernel_size=(1, 1), stride=(1, 1), bias=False)
              (2): SyncBatchNorm(256, eps=1e-05, momentum=0.1, affine=True, track_running_stats=True)
              (3): ReLU(inplace=True)
            )
            (conv1): Conv2d(1280, 256, kernel_size=(3, 3), stride=(1, 1), padding=(1, 1), bias=False)
            (bn1): SyncBatchNorm(256, eps=1e-05, momentum=0.1, affine=True, track_running_stats=True)
            (relu): ReLU(inplace=True)
          )
          (decoder): Decoder(
            (conv1): Conv2d(256, 48, kernel_size=(1, 1), stride=(1, 1), bias=False)
            (bn1): SyncBatchNorm(48, eps=1e-05, momentum=0.1, affine=True, track_running_stats=True)
            (relu): ReLU(inplace=True)
            (output): Sequential(
              (0): DepthwiseSeparableConv(
                (depthwise_conv): Conv2d(304, 304, kernel_size=(3, 3), stride=(1, 1), padding=(1, 1), groups=304, bias=False)
                (depthwise_bn): SyncBatchNorm(304, eps=1e-05, momentum=0.1, affine=True, track_running_stats=True)
                (pointwise_conv): Conv2d(304, 256, kernel_size=(1, 1), stride=(1, 1), bias=False)
                (pointwise_bn): SyncBatchNorm(256, eps=1e-05, momentum=0.1, affine=True, track_running_stats=True)
                (relu): ReLU()
              )
              (1): DepthwiseSeparableConv(
                (depthwise_conv): Conv2d(256, 256, kernel_size=(3, 3), stride=(1, 1), padding=(1, 1), groups=256, bias=False)
                (depthwise_bn): SyncBatchNorm(256, eps=1e-05, momentum=0.1, affine=True, track_running_stats=True)
                (pointwise_conv): Conv2d(256, 256, kernel_size=(1, 1), stride=(1, 1), bias=False)
                (pointwise_bn): SyncBatchNorm(256, eps=1e-05, momentum=0.1, affine=True, track_running_stats=True)
                (relu): ReLU()
              )
              (2): Conv2d(256, 128, kernel_size=(1, 1), stride=(1, 1))
            )
          )
        )
      )
    )
    (heads): ModuleList(
      (0): DenseSwAVPrototypesHead(
        (projection_head): Identity()
        (prototypes0): Linear(in_features=128, out_features=128, bias=False)
      )
    )
  )
)
INFO 2021-11-09 00:53:30,910 trainer_main.py: 173: Loss is: { 'embedding_dim': 128,
  'epsilon': 0.05,
  'local_queue_length': 80000,
  'name': 'DenseSwAVLoss',
  'nmb_sinkhornknopp_iters': 3,
  'num_crops': 2,
  'num_prototypes': [128],
  'temp_hard_assignment_iters': 0,
  'temperature': 0.1,
  'use_double_precision': False}
INFO 2021-11-09 00:53:30,910 trainer_main.py: 174: Starting training....
…
